bullet_minitaur/models/complete.pt (torch_old, 35415 bytes, 7 tensors)

weight f4 [128, 28]
0	0x3d9d5ba0	0.07683492
1	0x3e119a13	0.14218931
2	0x3eb037ed	0.34417668
3	0x3dd30e4d	0.10305462
4	0x3c53a6fb	0.012918229
5	0xbd50ee89	-0.051008735
6	0x3d6232dc	0.055224285
7	0xbd899776	-0.06718342
8	0x3b256ce2	0.0025241901
9	0x3b828bff	0.003983974
10	0x3de875b1	0.11350573
11	0xbdf0c8f1	-0.117570765
12	0x3e018890	0.1264975
13	0xbe7f135b	-0.24909727
14	0x3d221f78	0.039580792
15	0xbc3b1330	-0.011418149
16	0x3cdee08f	0.027206687
17	0x3cc534af	0.024072973
18	0xbd9355b1	-0.07194079
19	0xbe12dc2b	-0.143418
20	0x3e76f8b2	0.24118307
21	0xba0e0167	-0.0005417079
22	0xbd02f80a	-0.03197483
23	0x3dfc6bef	0.12325274
24	0x3f1219e1	0.5707074
25	0xbe6e12e7	-0.23249398
26	0xbd9d60b2	-0.07684459
27	0x3e3c36f3	0.18380336
28	0x3dd731fb	0.1050758
29	0x3d991f9a	0.07476731
30	0xbe21ec40	-0.15812778
31	0x3b97140a	0.004610543
32	0x3e90dff6	0.2829587
33	0x3d555ce3	0.052090537
34	0x3def7cc3	0.11693718
35	0x3e02f70a	0.1278955
36	0x3a5a8bb5	0.0008336858
37	0x3d8027b2	0.06257571
38	0x3e29f943	0.16598992
39	0x3e1acb02	0.15116504
40	0x3e6d68af	0.23184465
41	0x3ce0bea5	0.027434656
42	0xbcc47f09	-0.023986356
43	0x3dbe31e3	0.09286859
44	0x3bb20fc2	0.0054340074
45	0x3deeed62	0.11666371
46	0xbdd46bc4	-0.10372117
47	0x3dd0b9d9	0.101916976
48	0xbda42ea9	-0.08016712
49	0x3d4fa8b4	0.050697997
50	0xbd9d8f8a	-0.076933935
51	0xbba9c047	-0.005180392
52	0xbd54f43e	-0.05199074
53	0x3efad49c	0.48990333
54	0x3e39541a	0.18098488
55	0x3d497758	0.04918608
56	0x3ddabf1c	0.106809825
57	0x3e04ce03	0.12969212
58	0xbb9c6bf0	-0.0047736093
59	0xbe1e3deb	-0.15453307
60	0xbdc2fccf	-0.09520876
61	0xbe110457	-0.14161812
62	0xbe2bd4ea	-0.16780439
63	0xbe300fec	-0.17193574
64	0xbce025f4	-0.027361847
65	0xbd201c3a	-0.03908942
66	0x3dbe1291	0.09280885
67	0xbcecdf89	-0.028915184
68	0x3c319c52	0.010840492
69	0xbdc78455	-0.09742037
70	0xbd4bff40	-0.049803972
71	0xbd66f3cd	-0.05638485
72	0xbc619f02	-0.013770821
73	0x3dae3c85	0.08507637
74	0xbe2f4a59	-0.17118205
75	0xbd52c823	-0.051460396
76	0xbcefa9ba	-0.029255737
77	0xbd81399a	-0.06309815
78	0xbd5f6bad	-0.054546047
79	0x3e365af0	0.17808127
80	0xbeb3aa74	-0.35090983
81	0xbe76688f	-0.24063323
82	0x3dab2445	0.08356527
83	0x3dcbdeb0	0.09954584
84	0xbe3922b7	-0.18079649
85	0xbdd637ba	-0.10459848
86	0xbe11f609	-0.14254011
87	0x3db4ab81	0.08821774
88	0x3e2e72c8	0.17035973
89	0xbcd9141a	-0.026498843
90	0xbd74ab67	-0.059733775
91	0xbe2d06d4	-0.16897136
92	0xbd925ff6	-0.07147209
93	0xbd361be0	-0.044460177
94	0x3dc9879a	0.09840317
95	0xbd95dd1e	-0.073175654
96	0xbd959b2b	-0.073049866
97	0xbe11167a	-0.1416873
98	0x3c2cd469	0.010548689
99	0x3da19fae	0.078917846
100	0x3d4c2104	0.049836174
101	0x3de77572	0.11301698
102	0x3c05e2de	0.008171765
103	0x3df78dcb	0.12087592
104	0xbca7e188	-0.020493284
105	0xbdacf82e	-0.08445774
106	0xbd2cd81a	-0.042198278
107	0xbd8b5d5a	-0.06804915
108	0xbec84f11	-0.39122823
109	0x3f2caf29	0.67454773
110	0x3de03212	0.1094705
111	0xbc251475	-0.010075678
112	0x3cfd7407	0.030939115
113	0xbd0f3a3c	-0.034967646
114	0x3cd08204	0.025452621
115	0x3dde593c	0.10856864
116	0x3e197bb3	0.14988594
117	0x3dae7cad	0.08519874
118	0x3bee3c92	0.007270404
119	0x3cf3b18e	0.02974775
120	0x3da783a8	0.08179408
121	0xbdc1ae26	-0.09457044
122	0x3d8b6c43	0.06807759
123	0xbda68632	-0.081310645
124	0x3cc26b1b	0.023732712
125	0xbdb80fa4	-0.08987358
126	0xbc9eaa50	-0.01936832
127	0x3cbe21cb	0.023209473
128	0xbdf22b3c	-0.118246526
129	0x3dd6fd3d	0.1049752
130	0xbbe0774f	-0.00685016
131	0xbe5dc78d	-0.21658154
132	0xbe57e4a2	-0.2108331
133	0xbcdc5e80	-0.02690053
134	0xbe0bc1e4	-0.13648182
135	0xbe0354ed	-0.12825365
136	0xbdacf043	-0.08444264
137	0x3ef6d6d0	0.48210764
138	0xbd0b578c	-0.034019038
139	0xbe093a22	-0.13401082
140	0x3e4f5fca	0.20251384
141	0xbe02a1f1	-0.12757088
142	0x3de14d61	0.11001087
143	0x3e1f51e4	0.15558583
144	0x3e1cf9ee	0.15329716
145	0xbd410da1	-0.04713214
146	0x3cff0c8f	0.031133918
147	0x3e016489	0.12636007
148	0x3cc68d96	0.024237435
149	0x3d1a620f	0.037691172
150	0xbddf50b5	-0.109040655
151	0xbdbe3187	-0.0928679
152	0xbc360867	-0.011110402
153	0x3d2e0e7f	0.042494293
154	0xbca5eb44	-0.020253785
155	0xbd06157c	-0.032735333
156	0x3bac5dfe	0.005260228
157	0xbd5a0b0f	-0.053233203
158	0x3e22731e	0.15864226
159	0xbd9cc1db	-0.076541625
160	0xbdf1c0c5	-0.11804346
161	0xbdd2dbb6	-0.10295813
162	0xbe1cc3d0	-0.15309072
163	0x3dadc3e5	0.084846295
164	0xbdd9a48a	-0.106270865
165	0xbe428562	-0.18996194
166	0x3e02001f	0.12695359
167	0x3de62773	0.11237993
168	0x3dd2ed3b	0.10299154
169	0x3e575947	0.2103015
170	0xbd088e8c	-0.03333907
171	0x3de27502	0.11057474
172	0xbd962c02	-0.073326126
173	0xbd760b09	-0.060069118
174	0xbe4a6b37	-0.19767462
175	0xbd85ff6f	-0.06542861
176	0xbc845b04	-0.01615668
177	0x3c1da872	0.00962268
178	0xbb8a0dd1	-0.004213073
179	0xbc205d9f	-0.009787946
180	0x3dd15994	0.10222164
181	0x3de6a3d6	0.11261718
182	0x3dd72d9f	0.105067484
183	0xbcd95e31	-0.026534172
184	0xbdd5f453	-0.10446992
185	0x3ca8a209	0.020585077
186	0xbd72bc48	-0.05926159
187	0x3c8943ef	0.016756026
188	0xbe0c3360	-0.13691473
189	0x3ddbca24	0.10731915
190	0xbcccd50d	-0.025003934
191	0x3db59ae6	0.08867435
192	0xbd0e7921	-0.034783486
193	0xbf28f16f	-0.659934
194	0xbe374f7b	-0.17901413
195	0xbd03efa4	-0.03221096
196	0xbd87120b	-0.06595238
197	0xbe5bf813	-0.21481352
198	0xbd9f3d3e	-0.07775353
199	0x3d35f98b	0.044427436
200	0x3e10c65c	0.14138168
201	0xbca074a4	-0.019586869
202	0x3e06ae6d	0.13152476
203	0xbc6bf0b1	-0.014400647
204	0xbd224d96	-0.039624773
205	0xbd3473c9	-0.044055734
206	0xbd9de5ad	-0.07709823
207	0x3daf057c	0.08545968
208	0xbd15e00b	-0.036590617
209	0xbdddb69c	-0.108258456
210	0xbdad6fdf	-0.08468603
211	0x3de2ed67	0.11080437
212	0x3e255e84	0.16149336
213	0x3c56ff79	0.013122433
214	0x3dc4ba90	0.096058965
215	0x3e382d00	0.17985916
216	0x3e3163f6	0.17323288
217	0xbd906875	-0.070511736
218	0xbd3d5cbf	-0.046231028
219	0x3e4d3b3e	0.2004213
220	0xbe835344	-0.25649464
221	0x3f138c5d	0.5763605
222	0xbd14702f	-0.0362398
223	0xbe25e8e2	-0.16202119
224	0xbd788627	-0.060674813
225	0x3dba3de2	0.090938345
226	0xbe69d2c1	-0.22834302
227	0xbe825589	-0.25455883
228	0x3dcd121d	0.100132205
229	0x3e05713a	0.13031474
230	0x3cee2351	0.029069575
231	0xbe30b840	-0.17257786
232	0xbd52d616	-0.0514737
233	0x3a840a31	0.0010073838
234	0xbd627101	-0.05528355
235	0xbcd1340e	-0.025537517
236	0xbd51548f	-0.051106032
237	0x3d198880	0.037483692
238	0xbd63361d	-0.05547153
239	0xbcbeadde	-0.023276266
240	0xbca0ccb9	-0.01962887
241	0x3e1ec7db	0.15505926
242	0xbcf5b0e1	-0.029991569
243	0x3e1d9ba9	0.15391411
244	0xbe2b6e9c	-0.16741413
245	0x3d61aad1	0.055094544
246	0xbd88356f	-0.06650817
247	0xbde8003a	-0.11328168
248	0x3dfbc908	0.12294203
249	0xbe812c43	-0.25229082
250	0xbdce767b	-0.10081192
251	0xbc15344f	-0.00910671
252	0xbe6bcf94	-0.23028404
253	0xbdef9e7f	-0.117001526
254	0xbe38b0a5	-0.18036135
255	0xbe1446c9	-0.14480127

bias f4 [128]
0	0xbd82bc46	-0.063835666
1	0x3e38c235	0.18042834
2	0x3cef101b	0.029182484
3	0xbe0539c5	-0.13010319
4	0x3afdc2b5	0.0019360395
5	0xbe3b4a84	-0.18290144
6	0x3d6e2a73	0.05814595
7	0xbe286d5b	-0.16447966
8	0x3bf6b515	0.007528911
9	0x3df42007	0.11920171
10	0x3dd05e26	0.101742074
11	0xbe379853	-0.17929201
12	0x3dcefd5b	0.101069175
13	0xbe0d75dd	-0.13814493
14	0x3d58c883	0.052925598
15	0xbd98cea7	-0.07461291
16	0x3dcfa032	0.10137977
17	0x3e4425fa	0.19155112
18	0x3e1f1a2b	0.15537326
19	0xbc82c497	-0.015962882
20	0xbdc0dbf0	-0.0941695
21	0x3e3edcee	0.18638965
22	0xbcfbbd79	-0.030729996
23	0x3df685b3	0.1203722
24	0x3d6fa692	0.058508463
25	0xbe20a9ce	-0.15689775
26	0x3de3fde5	0.11132411
27	0xbe2985e3	-0.1655498
28	0xbdf0d70e	-0.117597684
29	0xbd0bdf4f	-0.03414851
30	0xbd0cda18	-0.034387678
31	0x3ddd49b4	0.108050734
32	0xbd3c9329	-0.04603878
33	0xbc6819f8	-0.014166348
34	0xbe342de2	-0.17595628
35	0x3dedbc2e	0.11608158
36	0x3ccb5f95	0.02482585
37	0x3da43d70	0.08019531
38	0x3e726664	0.23671871
39	0x3d568520	0.05237305
40	0xbe2fe572	-0.1717737
41	0x3d88e477	0.06684201
42	0xbca15eeb	-0.01969858
43	0x3d9b91a1	0.07596136
44	0xbcbc0686	-0.02295233
45	0xbcfbcf29	-0.03073843
46	0x3e1fd8b0	0.15610003
47	0xbdc26399	-0.09491653
48	0x3e209ea4	0.15685517
49	0xbd880084	-0.06640723
50	0x3d920c5f	0.07131266
51	0xbcc8c065	-0.024505803
52	0x3e20a06b	0.15686195
53	0x3dcc941b	0.099891864
54	0xbe2ed9b6	-0.17075238
55	0xbbbcaca4	-0.005757885
56	0x3dc57de3	0.096431516
57	0x3e40d936	0.1883286
58	0xbdc51025	-0.0962222
59	0x3e21869c	0.15774006
60	0xbda36960	-0.07979083
61	0xbda7c661	-0.08192135
62	0x3d8828a4	0.066483766
63	0x3e0afe7b	0.13573639
64	0xbdbd6164	-0.092470914
65	0xbdb3a013	-0.08770766
66	0xbd8a5a88	-0.06755549
67	0xbe145bbd	-0.1448812
68	0x3d2e1507	0.042500522
69	0x3d6396bd	0.055563677
70	0xbda9dbd2	-0.082938805
71	0xbdc1ed21	-0.09469057
72	0xbe1d7db2	-0.1537998
73	0xbc69fe14	-0.014281768
74	0xbd5bf367	-0.053698923
75	0xbd2fd931	-0.04293174
76	0xbe32e607	-0.17470561
77	0xbda4a400	-0.08039093
78	0xbdd91d7e	-0.10601328
79	0x3e6bd515	0.23030503
80	0x3e09384f	0.13400386
81	0xbe666671	-0.22500016
82	0x3e2c6b0a	0.16837707
83	0x3c66077e	0.014039872
84	0x3dfdd3dd	0.12393925
85	0xbddf3192	-0.10898127
86	0xbe77e63c	-0.24208921
87	0xbde5927a	-0.11209579
88	0x3e12de92	0.14342716
89	0xbe18d23b	-0.14923947
90	0xbcca0114	-0.024658717
91	0x3e59ae29	0.21257843
92	0xbe22aab7	-0.15885435
93	0x3e170662	0.14748529
94	0x3d425943	0.047448408
95	0xbd36c5c9	-0.044622216
96	0x3d15391f	0.036431428
97	0x3e23e568	0.1600548
98	0x3d6d5378	0.05794093
99	0x3db7fa8f	0.08983337
100	0xbd8fff26	-0.070310876
101	0x3d3d4ab6	0.046213828
102	0x3e853919	0.26020125
103	0x3d869ddf	0.0657308
104	0xbe12e16f	-0.14343809
105	0x3e3269dc	0.17423195
106	0x3e14b542	0.1452227
107	0x3dbc9a27	0.0920909
108	0x3da4c975	0.080462374
109	0x3e8f4635	0.2798325
110	0x3e133017	0.14373814
111	0x3b3964ad	0.0028288767
112	0x3e0a3856	0.13498053
113	0x3dffe4ac	0.124947876
114	0xbe1392a4	-0.14411408
115	0xbd1f7cc2	-0.038937338
116	0xbca2aea2	-0.019858662
117	0x3e1151db	0.14191382
118	0xbd58f444	-0.052967325
119	0x3e4c589a	0.19955674
120	0x3ddbbafb	0.10729023
121	0x3e33c751	0.17556502
122	0x3c2f0e3c	0.010684546
123	0x3e0175e1	0.12642623
124	0x3d41757f	0.047231194
125	0x3dfe4e4d	0.124172784
126	0x3e3b0504	0.18263632
127	0xbe631f3d	-0.22179885

weight f4 [8, 128]
0	0x3d9ae51a	0.07563229
1	0x3c087fb6	0.00833123
2	0xbc4b1cdb	-0.012397016
3	0xbdb4c376	-0.08826344
4	0xbda0ad4b	-0.07845553
5	0xbc544af6	-0.012957325
6	0x3ce42e82	0.027854208
7	0x3cdd1354	0.026986755
8	0xbcdfb75a	-0.027309109
9	0x3d9a8223	0.07544353
10	0xbde2a6a6	-0.11066942
11	0xbe09fe6c	-0.1347596
12	0xbbc99dba	-0.0061528357
13	0xbdb7ab67	-0.08968239
14	0xbc6c6a61	-0.01442966
15	0x3cbaeba2	0.022817437
16	0xbda9dec4	-0.08294442
17	0xbd8bafe8	-0.06820661
18	0xbda23013	-0.07919326
19	0x3d74e590	0.05978924
20	0x3cc9c15f	0.02462834
21	0x3d387219	0.045030687
22	0xbd84f3be	-0.06491803
23	0xbd582e73	-0.052778672
24	0x3d6523fc	0.05594252
25	0xbd27d431	-0.040973846
26	0xbc99c120	-0.018768847
27	0xbdf2fc88	-0.11864573
28	0xbdae732d	-0.08518062
29	0x3b8ec5ea	0.0043570893
30	0xbd73c655	-0.059515316
31	0xbdae3de0	-0.085078955
32	0x3daa2bb1	0.08309115
33	0x3ab6b4d4	0.0013939389
34	0xbcf81114	-0.030281581
35	0x3bd88809	0.0066080135
36	0x3da44b44	0.08022168
37	0x3d72f617	0.05931672
38	0x3dab9428	0.08377868
39	0x3d15a5aa	0.036534943
40	0xb8f49187	-0.00011661933
41	0xbdc6a5ae	-0.0969957
42	0x3cb27309	0.021783369
43	0x3d61ed24	0.055157796
44	0x3dc2427d	0.09485338
45	0x3c2dc1e7	0.010605312
46	0x3c25520f	0.010090365
47	0x3dc81ef2	0.09771527
48	0xbe00ef85	-0.1259137
49	0x3cbdfca3	0.023191756
50	0x3daeb7bd	0.08531139
51	0xbdae7f41	-0.085203655
52	0xbda0b414	-0.07846847
53	0x3ca82017	0.020523114
54	0xbdf092b7	-0.11746734
55	0x3cbc9c33	0.0230237
56	0xbcc7267f	-0.024310349
57	0x3ddf8384	0.109137565
58	0xbdee0d51	-0.11623634
59	0xbc873c6c	-0.016508304
60	0xbd91923b	-0.071079694
61	0xbbb31c37	-0.00546601
62	0xbd6824e8	-0.05667582
63	0xbe211edc	-0.15734428
64	0x3cbdde99	0.023177432
65	0x3c00aa75	0.00785314
66	0x3d3c1a38	0.04592344
67	0x3d3ae339	0.045626853
68	0x3ce9e428	0.028551176
69	0xbccb2843	-0.024799472
70	0xbd127b0c	-0.035761878
71	0xbd76cc49	-0.060253415
72	0x3c17262d	0.00922541
73	0x3d162414	0.0366555
74	0x3d92d592	0.071696416
75	0x3d920af5	0.07130996
76	0xbdb10d0c	-0.086450666
77	0xbd838ca8	-0.064233124
78	0x3c95f05c	0.018303089
79	0x3da8a10f	0.082338445
80	0x3de9081f	0.11378502
81	0xbd81c167	-0.06335717
82	0x3c7c6cf7	0.015406839
83	0xbd9e36a9	-0.07725269
84	0x3c8d15f0	0.017222375
85	0x3da0f45c	0.07859108
86	0x3cedf205	0.029046068
87	0xbb8a6d53	-0.0042244582
88	0xbd81afd8	-0.06332368
89	0xbbfd8555	-0.0077368417
90	0xbe1d9407	-0.15388499
91	0x3e033fc6	0.12817296
92	0xbc91a425	-0.017778466
93	0x3ca616d4	0.020274557
94	0x3dc2e9a1	0.095172174
95	0x3ddc9b3d	0.10771797
96	0xbdceea7d	-0.10103319
97	0x3d90faa4	0.07079056
98	0x3dcfebba	0.10152383
99	0xbe06384e	-0.13107416
100	0xbd10feee	-0.03539937
101	0x3d2b97b6	0.04189273
102	0x3d51c8e2	0.051216967
103	0xbdd3dfcc	-0.1034542
104	0xbd6561cb	-0.056001466
105	0x3d0c07b1	0.034187023
106	0xbdbaf754	-0.09129205
107	0x3dea494f	0.11439764
108	0x3d8216c4	0.063519984
109	0x3d1722fb	0.036898594
110	0xbc000d07	-0.007815606
111	0xbda7f343	-0.08200695
112	0x3d289773	0.04116006
113	0x3d104aaf	0.035227474
114	0x3df5e9a5	0.12007455
115	0x3c72dbf1	0.014822946
116	0xbd955824	-0.07292202
117	0xbdc8baba	-0.0980124
118	0xbcde757a	-0.027155627
119	0x3ccae750	0.024768502
120	0xbd4b4c74	-0.04963346
121	0xbd962c5a	-0.07332678
122	0xbd633421	-0.055469636
123	0xbcac2843	-0.021015292
124	0xbc6ab61a	-0.014325643
125	0xbd1ef617	-0.03880891
126	0x3d105021	0.035232667
127	0x3da3b0ca	0.07992704
128	0xbd0ae0d0	-0.033905804
129	0xbdcb3853	-0.09922852
130	0x3cafeb86	0.021474611
131	0x3d2f2618	0.04276094
132	0xbd264815	-0.040596087
133	0x3c6feddd	0.014644113
134	0xbd562bcb	-0.052287858
135	0xbd998a0d	-0.07497034
136	0x3da6668a	0.081250265
137	0x3d7a2def	0.061078962
138	0x3d2deb3b	0.04246066
139	0x3d33dcb1	0.04391164
140	0xbd043e96	-0.03228625
141	0xbc06f37b	-0.008236761
142	0x3ce484af	0.0278953
143	0xbdac9cf8	-0.08428377
144	0xbd828d50	-0.063746095
145	0xbdaa5bba	-0.08318277
146	0xbbf522a0	-0.0074809343
147	0x3db15f38	0.0866074
148	0xbd2f9350	-0.042865098
149	0xbd7cda2e	-0.06173151
150	0xbb13acc5	-0.0022533399
151	0xbda3c9a6	-0.07997446
152	0x3d9b6aea	0.075887516
153	0xbd0e955e	-0.034810416
154	0xbcba9f17	-0.022780938
155	0x3c4cf7b1	0.012510226
156	0xbd07dbc5	-0.033168573
157	0xbde41bd7	-0.111381225
158	0xbdd3f772	-0.10349931
159	0xbe1725e4	-0.14760548
160	0xbdcf3c5f	-0.10118937
161	0xbdb41ad4	-0.087941796
162	0x3d470969	0.04859296
163	0x3d8181c1	0.06323577
164	0xbd6b7f1a	-0.05749426
165	0xbe1028ea	-0.14078107
166	0xbd5b4b6e	-0.053538732
167	0xbdc6dca0	-0.0971005
168	0x3d592339	0.053012107
169	0x3d305a8a	0.043055095
170	0x3d84030e	0.06445895
171	0x3d51be84	0.05120708
172	0x3d547c94	0.05187662
173	0x3d92e95a	0.071734145
174	0xbd3bb371	-0.045825426
175	0x3db334e8	0.087503254
176	0x3c90bda7	0.017668558
177	0xbd261981	-0.040551666
178	0xbd66ccc8	-0.05634764
179	0xbdb925b3	-0.09040394
180	0xbcbb28e9	-0.022846656
181	0xbdc8c139	-0.09802479
182	0x3d245245	0.04011752
183	0x3afa6f81	0.0019106717
184	0xbd697540	-0.056996584
185	0x3c6d4e70	0.014484033
186	0xbe07c8be	-0.13260171
187	0xbd2f43c8	-0.04278925
188	0xbe3c23e9	-0.18373074
189	0xbdc79bc6	-0.09746508
190	0x3d3f97b0	0.04677552
191	0x3d88606f	0.06659018
192	0x3c813a57	0.015774889
193	0x3d8000db	0.06250163
194	0x3d68fbb0	0.056880653
195	0x3c1fff95	0.009765525
196	0xbdadb8c5	-0.084825076
197	0x3cfd5cca	0.030928034
198	0x3d0ed807	0.03487399
199	0xbd0e94e1	-0.03480995
200	0xbd21a173	-0.03946061
201	0xbde0ce43	-0.10976841
202	0xbb92f8f2	-0.004485243
203	0x3cbf81f7	0.023377402
204	0xbbbe9a8b	-0.005816763
205	0xbcf510d6	-0.029915255
206	0x3d0f45fc	0.03497885
207	0xbd448e48	-0.047987252
208	0x3d0a814e	0.03381472
209	0x3d766c7d	0.060162056
210	0x3d671e9d	0.05642568
211	0xbd935766	-0.07194404
212	0xbc613533	-0.013745594
213	0x3db776a4	0.08958176
214	0xbcf29e57	-0.029616518
215	0x3c93123e	0.017953034
216	0xbe02143a	-0.12703028
217	0x3ccb59fd	0.024823183
218	0x3da8aef0	0.08236492
219	0x3c81ba67	0.015835954
220	0xbd0afb0a	-0.033930816
221	0xbd2d5025	-0.04231276
222	0xbdc8f825	-0.09812955
223	0x3d528c74	0.051403478
224	0xbd907e18	-0.070553005
225	0xbd52b7f6	-0.05144497
226	0xbd871088	-0.0659495
227	0xbb934664	-0.004494475
228	0xbd31b3b7	-0.04338428
229	0xbd7b30a9	-0.061325703
230	0xbd60a21e	-0.054842107
231	0xbd189428	-0.037250668
232	0x3b990299	0.004669499
233	0xbd911c77	-0.07085507
234	0x3b943dde	0.0045239767
235	0x3d58cf0a	0.052931823
236	0xbc978bd6	-0.018499296
237	0xbd0d9c23	-0.03457273
238	0xbd8396c2	-0.06425239
239	0x3c509c60	0.012732595
240	0xbb580eb9	-0.003296776
241	0x3caf79a2	0.021420304
242	0x3dbca32d	0.09210811
243	0x3d59bde5	0.053159613
244	0xbda84303	-0.082159065
245	0xbd112077	-0.03543135
246	0x3bc23562	0.005926774
247	0xbd3d4af2	-0.04621405
248	0xbb2e2c27	-0.002657661
249	0x3c5c57a9	0.013448634
250	0xbd2bc3a7	-0.041934635
251	0xbd8ffe31	-0.07030905
252	0xbcdb32ac	-0.02675756
253	0xbd9a0f1f	-0.07522415
254	0xbdbeeccd	-0.0932251
255	0x3d4c042e	0.049808674

bias f4 [8]
0	0x3ca6d5dd	0.02036565
1	0xbc0edfba	-0.008720333
2	0x3c6ac202	0.014328482
3	0x3c215d4f	0.009848907
4	0x3d745f52	0.059661217
5	0xbc3ce181	-0.011528374
6	0xbce1e146	-0.027573239
7	0x3dba5295	0.090977825

weight f4 [8, 128]
0	0xbd046072	-0.03231854
1	0x3d973972	0.07384004
2	0x3c46d13d	0.012134847
3	0x3d2be2e8	0.04196444
4	0xbdc5f43a	-0.09665723
5	0xbd0b544a	-0.03401593
6	0x39a53f43	0.00031518386
7	0x3c24f2df	0.010067671
8	0xbcd00519	-0.025393056
9	0xbc3cc090	-0.01152052
10	0x3bf4bfbb	0.007469145
11	0x3d0c8b23	0.03431238
12	0xbd53fd2f	-0.051755127
13	0x3c7a48d6	0.0152761545
14	0x3de88fd1	0.11355556
15	0x3d399af1	0.04531378
16	0xbc19f253	-0.0093961535
17	0x3bffeebd	0.0078104422
18	0x3d6eba6a	0.058283247
19	0x3d1acbce	0.03779202
20	0xbd750a80	-0.059824467
21	0xbd8972fb	-0.06711384
22	0xbbbc38d7	-0.0057440805
23	0xbd47e445	-0.04880168
24	0x3d47db9a	0.048793413
25	0xbd22ee60	-0.039778113
26	0x3e5a3375	0.21308692
27	0x3c1a4c2d	0.009417576
28	0xbd874c98	-0.06606406
29	0x3d21ca59	0.039499614
30	0x3d761dc6	0.060086988
31	0xbcd1fd32	-0.025633428
32	0xbd18fbd8	-0.037349552
33	0x3da01af0	0.07817638
34	0x3d2e530e	0.042559676
35	0xbd62535e	-0.055255286
36	0xbd9a7398	-0.07541579
37	0xbe305489	-0.17219748
38	0xbcc3a1aa	-0.023880798
39	0xbd9e52f1	-0.077306636
40	0x3ddca3da	0.1077344
41	0xbceec9a2	-0.02914888
42	0xbd5685ee	-0.05237382
43	0x3c68a196	0.014198681
44	0x3d751542	0.059834726
45	0xbd02ff75	-0.031981904
46	0xbd5e92e8	-0.05433932
47	0xbdc0c795	-0.09413067
48	0x3dd160b3	0.10223522
49	0xbd0f74db	-0.03502355
50	0x3b92aebf	0.0044763978
51	0xbd8d6e81	-0.069058426
52	0xbd88bc86	-0.06676583
53	0x3d534b7b	0.051585656
54	0xbc16dbd6	-0.009207686
55	0x3d480019	0.048828218
56	0xbd78527a	-0.06062553
57	0x3c2a7ac1	0.010405243
58	0xbd127499	-0.035755727
59	0xbdc16edc	-0.09444973
60	0xbdaa2952	-0.083086625
61	0x3d777e09	0.06042293
62	0xbdb9ebaa	-0.090781525
63	0x3d89338b	0.06699284
64	0xbbceef23	-0.0063151284
65	0xbd925fa8	-0.07147151
66	0x3d2f1e90	0.042753756
67	0x3cf721d2	0.030167494
68	0x3cfefc33	0.031126117
69	0x3d32eba1	0.043681744
70	0xbccc83fd	-0.02496528
71	0x3c88d8d7	0.01670496
72	0xbd99ebd4	-0.07515684
73	0xbd801f16	-0.06255929
74	0xbc0ce437	-0.0085993325
75	0xbcd778a7	-0.026302649
76	0x3df20b1c	0.11818525
77	0x3dd19fb1	0.10235537
78	0x3c1600fc	0.009155508
79	0xbd8e2b5c	-0.06941864
80	0xbc706657	-0.014672837
81	0xbca4b411	-0.020105394
82	0x399e2d26	0.00030169747
83	0x3da244c1	0.0792327
84	0xbe0fbe63	-0.1403747
85	0xbe044d76	-0.12920174
86	0xbcdde786	-0.027087938
87	0x3d6f9a26	0.058496617
88	0xbd0818f6	-0.03322693
89	0xbc594ac4	-0.013262454
90	0x3d95c1b6	0.07312338
91	0xbd4521ca	-0.048127927
92	0x3d85a338	0.06525272
93	0x3d92b76f	0.071638934
94	0xbd781cac	-0.06057422
95	0x3bacc957	0.005273025
96	0x3dbf3ef2	0.09338178
97	0x3cd73f15	0.026275197
98	0xbd12cc86	-0.03583958
99	0xbd864594	-0.0655624
100	0x3d904f15	0.07046334
101	0x3db8b89f	0.09019589
102	0x3ca8e11e	0.020615157
103	0xbd0c51fb	-0.03425787
104	0x3c151068	0.00909815
105	0x3c301316	0.010746738
106	0xbdb6204b	-0.08892878
107	0x3d58bbfb	0.052913647
108	0xbe02128e	-0.1270239
109	0xbdccbc3c	-0.0999684
110	0xbb26ac0d	-0.002543214
111	0xbd03ab60	-0.032145858
112	0xbdad9659	-0.08475942
113	0xbcf97cc9	-0.03045501
114	0x3c7a164d	0.015264106
115	0xbd9716a1	-0.07377363
116	0x3c625606	0.013814455
117	0x3dbd9e5a	0.09258719
118	0x3d806680	0.0626955
119	0x3b0f8d89	0.002190443
120	0x3cba06f1	0.022708388
121	0x3d6735cb	0.056447785
122	0x3c8da8a5	0.01729233
123	0xbdf71651	-0.120648034
124	0xbd48b052	-0.048996277
125	0x3c93918a	0.018013734
126	0xbd97dfac	-0.07415709
127	0x3d2dba25	0.04241385
128	0xbdc4fa03	-0.096179985
129	0x3cc5a996	0.024128716
130	0x3c82ebb4	0.015981533
131	0x3c2459af	0.010031148
132	0x3c177a5c	0.009245481
133	0xbb229532	-0.0024808166
134	0x3b244eb0	0.0025071315
135	0x3c9aab65	0.018880555
136	0xbb962d36	-0.0045830263
137	0x3cbd6e26	0.023123812
138	0x3d21021d	0.039308656
139	0xbc1b1693	-0.009465831
140	0x3bf44c39	0.0074553755
141	0x3d0ed73b	0.03487323
142	0x3dec272b	0.11530908
143	0xbde56714	-0.11201301
144	0xbd13be3f	-0.036070105
145	0x3c5818cc	0.013189506
146	0xbd955e9f	-0.07293438
147	0xbc7448d8	-0.014909945
148	0xbd0614e7	-0.032734778
149	0x3c642f4d	0.013927293
150	0xbdc7ad38	-0.09749836
151	0x3ccc52d2	0.024941836
152	0xbd88091e	-0.06642364
153	0x3d356e82	0.04429484
154	0xbc3046ed	-0.0107590975
155	0xbc442326	-0.011971271
156	0xbbab1437	-0.0052209157
157	0xbd494587	-0.049138572
158	0x3c8a5144	0.016884454
159	0xbc21e07a	-0.00988018
160	0xbd215b36	-0.039393626
161	0x3d248773	0.040168237
162	0xbd3222eb	-0.04349033
163	0xbdc7bd8a	-0.097529486
164	0x3d5ac1ca	0.053407468
165	0xbe33fe5b	-0.17577498
166	0xbc95ee8c	-0.018302225
167	0x3c4776fc	0.012174364
168	0x3d7af956	0.06127294
169	0xbce8303b	-0.02834331
170	0x3d02ed83	0.03196479
171	0x3cd8c820	0.026462615
172	0x3d9883ae	0.07446991
173	0xbc992430	-0.018694013
174	0xbd8ef6db	-0.06980678
175	0xbd526b20	-0.051371694
176	0xbddb8921	-0.10719515
177	0xbdb8b2c0	-0.09018469
178	0x3dadea5b	0.084919654
179	0x3d31f34a	0.04344491
180	0xbbe7b1de	-0.007070764
181	0x3dfe0940	0.12404108
182	0x3dc954ef	0.09830653
183	0xbca3b002	-0.019981388
184	0xbb495f0d	-0.003072682
185	0xbd99a94a	-0.075029925
186	0x3d883e33	0.066524886
187	0xbd6ed42f	-0.058307823
188	0xbd3c0bb8	-0.045909613
189	0x3dee0d86	0.11623673
190	0xbdad5f33	-0.084654234
191	0xbdb3c17b	-0.08777138
192	0x3d9a838a	0.0754462
193	0xbceddaa8	-0.029034927
194	0x3d0726c7	0.032995965
195	0x3d1d4bda	0.038402416
196	0xbb4838e5	-0.003055149
197	0xbd626089	-0.055267844
198	0x3b5838a4	0.0032992745
199	0x3d3c4812	0.04596717
200	0xbc8405ff	-0.01611614
201	0xbdd061a3	-0.10174873
202	0xbd94272a	-0.072340325
203	0x3db76afa	0.08955951
204	0xbd5f543a	-0.054523684
205	0x3c281656	0.010259232
206	0xbde0b735	-0.10972444
207	0x3c6d6b34	0.014490891
208	0x3c758b94	0.014986891
209	0xbb99c834	-0.0046930555
210	0xbbde5038	-0.006784465
211	0xbd1f1ec7	-0.03884771
212	0x3cf87f42	0.030334119
213	0xbd66a2e2	-0.05630768
214	0x3cd8b0ac	0.026451431
215	0xbd2bc06b	-0.04193155
216	0xba006db3	-0.0004899159
217	0x3dd7ddce	0.10540353
218	0xbc72f5db	-0.014829124
219	0xbd8a62d7	-0.067571335
220	0xbd2eb5db	-0.0426539
221	0x3cb9cd3f	0.022680877
222	0xbcfbbe67	-0.03073044
223	0xbd9e738e	-0.07736884
224	0x3d82338f	0.0635749
225	0x3cdaa262	0.026688758
226	0x3cf7677a	0.030200709
227	0xbdd25013	-0.10269179
228	0xbd398196	-0.0452896
229	0xbc9945ce	-0.018710043
230	0x3d3482ae	0.04406994
231	0x3bb98a3b	0.0056622303
232	0x3d1dd63b	0.038534384
233	0x3dcaa2e6	0.09894352
234	0xbc48770c	-0.012235414
235	0x3d986857	0.07441776
236	0x3ce3380d	0.027736688
237	0xbd73d841	-0.059532408
238	0xbd78f003	-0.060775768
239	0xbdb6070f	-0.08888065
240	0x3c676a57	0.0141244745
241	0xbc7be506	-0.015374428
242	0xbd8c1c71	-0.06841362
243	0xbd85cabb	-0.065328084
244	0xbceba082	-0.02876306
245	0xbd84dd86	-0.06487565
246	0xbd9cb01c	-0.07650778
247	0xbdc72fd5	-0.0972592
248	0x3dba0211	0.090824254
249	0xbd627ac7	-0.05529287
250	0xbd1c08c8	-0.038094312
251	0x3cb1a9d4	0.021687426
252	0xbb25983f	-0.0025267748
253	0xbde8586e	-0.113449916
254	0xbd4203d4	-0.047366932
255	0x3d3ce0d8	0.046112865

bias f4 [8]
0	0xbe092ead	-0.13396712
1	0xbdbfd966	-0.09367637
2	0xbd9fa28e	-0.07794677
3	0xbdda8e2f	-0.106716506
4	0xbdc2d87e	-0.09513949
5	0x3c4e6318	0.012596868
6	0xbde7e065	-0.11322097
7	0xbb35503e	-0.0027666236

weight f4 [1, 128]
0	0x3b4e1848	0.0031447578
1	0x38a9287a	8.066087e-05
2	0xbacd3644	-0.0015656431
3	0xb993faca	-0.00028224877
4	0x3a359256	0.0006926408
5	0xbab681cb	-0.0013924179
6	0x36b2b950	5.3263866e-06
7	0xbabda632	-0.0014469086
8	0x3b05c784	0.002041311
9	0x39f444e6	0.0004659064
10	0xb9a11c13	-0.0003072923
11	0xb968aa22	-0.00022188624
12	0x3a669ec6	0.0008797463
13	0xb9dc013b	-0.00041962587
14	0x3a4ba10b	0.0007767833
15	0x3a1a1d03	0.0005878957
16	0xbcce7917	-0.025204225
17	0x3a7e783b	0.0009707247
18	0x393409a6	0.00017169732
19	0xba7e4dce	-0.0009700925
20	0xb99c6d6a	-0.00029836159
21	0xb8ff0700	-0.000121606514
22	0xbd1e8a7b	-0.038706284
23	0x3a660a1f	0.0008775312
24	0x393cb7c9	0.00017997542
25	0xba75654c	-0.0009361103
26	0xbddaaa17	-0.10676973
27	0xbb3144a6	-0.0027048974
28	0x3a7e1ab6	0.00096933113
29	0xb9ae3ea9	-0.00033234552
30	0xba2da77e	-0.00066243846
31	0xb9901f9e	-0.00027489377
32	0xb965b1b6	-0.00021905344
33	0xbce6df51	-0.028182657
34	0xbb4c93dd	-0.0031216063
35	0xb64e23e1	-3.0717276e-06
36	0xbaa124e0	-0.0012294315
37	0x3cb91f0b	0.02259781
38	0x3a88aec4	0.0010428061
39	0x3b224970	0.002476301
40	0x3a07c6fe	0.00051794935
41	0xbd086f18	-0.033309072
42	0xbac12b77	-0.0014737685
43	0xba9bbb00	-0.0011881292
44	0x3a6a57ab	0.0008939455
45	0xbb920605	-0.004456284
46	0x3b0c42e1	0.0021402168
47	0x3a520519	0.0008011624
48	0xbc2ddd1b	-0.010611798
49	0x3a1ca52c	0.000597554
50	0xb9542087	-0.00020230013
51	0x3b1b18c9	0.0023665896
52	0xb9b014a8	-0.00033584726
53	0xbc03089f	-0.007997661
54	0x39bcfed8	0.00036048028
55	0xb913ac34	-0.00014083163
56	0x3ab3e3ce	0.0013724507
57	0x3a4239bf	0.00074091175
58	0xbae3cae0	-0.0017379187
59	0x3a093999	0.0005234718
60	0x39bf3bec	0.00036475004
61	0x3d01a8bb	0.031655055
62	0x399c6c1f	0.00029835195
63	0x3b0226ec	0.0019859625
64	0x39bb04b0	0.00035670912
65	0xba87bca3	-0.0010355901
66	0x3c8713f2	0.016489003
67	0xbb173b71	-0.0023076201
68	0xbad5d92a	-0.001631533
69	0x3b1a8b62	0.0023581614
70	0xbc43dcf5	-0.011954536
71	0xba88660e	-0.0010406391
72	0x39605443	0.00021393695
73	0x386d5f55	5.6593988e-05
74	0x3ad94f38	0.0016579395
75	0xbb0b8053	-0.0021286204
76	0x3a094ed9	0.00052378845
77	0xbae00dea	-0.001709399
78	0xba49fb26	-0.00077049655
79	0xbaa0ef0b	-0.0012278272
80	0x398afc85	0.00026509553
81	0xb7cc5582	-2.4358513e-05
82	0x3c3f099d	0.011660007
83	0x3d1f457b	0.03888462
84	0x3a22fa07	0.00062170665
85	0x3ab959d5	0.0014141152
86	0x3a5658c9	0.0008176682
87	0x38d82f1c	0.000103084574
88	0x3be071f5	0.0068495222
89	0x3c106c19	0.008814835
90	0x3a251b3b	0.0006298308
91	0x3c091c68	0.008368589
92	0xb9a818cc	-0.00032061932
93	0x3d1c5bef	0.038173612
94	0xbb028400	-0.0019915104
95	0x3bd7194b	0.0065642945
96	0xba534910	-0.00080598984
97	0x3a3bf7dd	0.00071704184
98	0xb96b1cfd	-0.00022422145
99	0xba321f5a	-0.0006794833
100	0x3aa813e4	0.0012823311
101	0x392e4276	0.00016618692
102	0x3cc86af0	0.024465054
103	0xbab29b8c	-0.0013626679
104	0x39d163ac	0.00039937848
105	0xbd20536c	-0.039142057
106	0x3d17043d	0.036869276
107	0xbc520d25	-0.012820517
108	0x3b1a0a5a	0.0023504705
109	0xbb34ea78	-0.0027605575
110	0x3b8f8a89	0.0043805283
111	0xbd2a4c12	-0.041576453
112	0x3a4c19a2	0.0007785802
113	0xba87e695	-0.0010368401
114	0x3a034c68	0.0005008639
115	0xba880317	-0.0010376897
116	0x3a30e4d7	0.0006747967
117	0xb9919395	-0.00027766512
118	0x3a5ef165	0.00085045985
119	0xb9d9947a	-0.0004150009
120	0xba2033f9	-0.000611126
121	0x3a051fe2	0.0005078298
122	0xbb12c720	-0.002239652
123	0x3a45725b	0.0007531994
124	0x3b01d8c9	0.0019813052
125	0xbd078961	-0.03309
126	0x3b18bd24	0.0023306096
127	0x399546de	0.00028472295
